Model: "sequential_1"
_________________________________________________________________
Layer (type)                 Output Shape              Param #   
=================================================================
conv2d_1 (Conv2D)            (None, 254, 254, 64)      1792      
_________________________________________________________________
max_pooling2d_1 (MaxPooling2 (None, 127, 127, 64)      0         
_________________________________________________________________
conv2d_2 (Conv2D)            (None, 125, 125, 16)      9232      
_________________________________________________________________
max_pooling2d_2 (MaxPooling2 (None, 62, 62, 16)        0         
_________________________________________________________________
conv2d_3 (Conv2D)            (None, 60, 60, 16)        2320      
_________________________________________________________________
max_pooling2d_3 (MaxPooling2 (None, 30, 30, 16)        0         
_________________________________________________________________
conv2d_4 (Conv2D)            (None, 28, 28, 8)         1160      
_________________________________________________________________
max_pooling2d_4 (MaxPooling2 (None, 14, 14, 8)         0         
_________________________________________________________________
flatten_1 (Flatten)          (None, 1568)              0         
_________________________________________________________________
dropout_1 (Dropout)          (None, 1568)              0         
_________________________________________________________________
dense_1 (Dense)              (None, 256)               401664    
_________________________________________________________________
dropout_2 (Dropout)          (None, 256)               0         
_________________________________________________________________
dense_2 (Dense)              (None, 54)                13878     
_________________________________________________________________
dense_3 (Dense)              (None, 36)                1980      
=================================================================
Total params: 432,026
Trainable params: 432,026
Non-trainable params: 0
_________________________________________________________________

Training time: 0:02:16.550156

test loss: 0.8999688029289246
test accuracy: 0.8111110925674438
Analysis of results:
              precision    recall  f1-score   support

           0       0.67      0.80      0.73         5
…
